model.pth (torch, 974223 bytes, 8 tensors)

weight f4 [256, 784]
0	0x3cf36c25	0.029714653
1	0x3c8635f3	0.016383147
2	0x3c78292a	0.015146533
3	0xbc97c940	-0.01852858
4	0xbcaa675c	-0.020801239
5	0x3c1a6185	0.0094226645
6	0xbb73686e	-0.0037141102
7	0xbc876cce	-0.016531374
8	0xbce36455	-0.027757803
9	0xbc65a40e	-0.0140161645
10	0xbce6f4ee	-0.028192963
11	0xbc8fe1b0	-0.01756367
12	0x3cb2bc0c	0.021818183
13	0x3b88c40a	0.0041737603
14	0x3ce45215	0.027871171
15	0x3cd274e5	0.025690505
16	0x3b0d33b7	0.0021545717
17	0x3b6a4b81	0.003575057
18	0xbc944970	-0.018101424
19	0x3ca8aee5	0.020591209
20	0x3c7e94f8	0.015538447
21	0xbae6854a	-0.0017587331
22	0xbb165925	-0.0022941318
23	0x3b97145c	0.0046105813
24	0x3b071c00	0.0020616055
25	0xbccc136a	-0.024911601
26	0xb984d64a	-0.0002533666
27	0x3bb548ae	0.0055323457
28	0xbcf9518e	-0.030434396
29	0xbcdcfe73	-0.0269768
30	0x3c1c44ae	0.009537859
31	0xbc9acaca	-0.018895525
32	0x3cd6ee16	0.026236575
33	0xbcdf18bb	-0.027233472
34	0x3c8282dd	0.015931541
35	0xbccaeb58	-0.024770424
36	0xbc53e930	-0.012934014
37	0xbb298be9	-0.0025870746
38	0xbd27fd80	-0.04101324
39	0xbd217a4d	-0.039423276
40	0x3d02ac2a	0.03190247
41	0x3c49a06e	0.012306316
42	0x3e61fa79	0.22068204
43	0x3e809154	0.25110877
44	0x3e83415a	0.25635797
45	0xbce41214	-0.027840652
46	0xb9c82ed1	-0.00038181854
47	0xbd653c8a	-0.055965938
48	0xbd39472d	-0.045233894
49	0x3bd9bb00	0.0066446066
50	0x3ca0d905	0.019634733
51	0x3b903c93	0.0044017523
52	0xbcd060ba	-0.025436748
53	0xbcd6afe3	-0.026206916
54	0xbc308657	-0.010774217
55	0x3c9a4dde	0.018835958
56	0x3b986113	0.004650244
57	0xbc009ed7	-0.00785037
58	0xbc8e0530	-0.017336458
59	0xbb9c68f3	-0.004773253
60	0xbd5b4412	-0.053531714
61	0xbbe6dceb	-0.0070453784
62	0xbd9f94f9	-0.07792086
63	0xbd55ae6c	-0.052168295
64	0xbe873f1d	-0.2641534
65	0xbe94cff7	-0.29064915
66	0xbe430493	-0.19044714
67	0x3d909201	0.07059098
68	0xbdd31aa4	-0.10307816
69	0x3de76892	0.11299242
70	0x3d26efb9	0.04075596
71	0x3e4c13d3	0.19929437
72	0x3ec64bad	0.3872961
73	0x3ea2c53b	0.317911
74	0x3e75f56b	0.24019401
75	0x3e4d3867	0.20041047
76	0x3e4758aa	0.19467416
77	0x3dabcc16	0.08388536
78	0x3da626b7	0.08112853
79	0x3e194243	0.14966683
80	0xbd4c662b	-0.049902122
81	0x3c8426fa	0.016131867
82	0x3ca1aa6c	0.019734584
83	0x3cf73efa	0.030181397
84	0x3c08df20	0.008353978
85	0xbd050c17	-0.032482233
86	0x3e09f764	0.13473278
87	0x3dc81820	0.097702265
88	0xbce04acf	-0.027379422
89	0xbc291a7c	-0.010321256
90	0xbd25a193	-0.040437292
91	0x3d0ae488	0.03390935
92	0x3e77efe6	0.24212608
93	0x3e4c38e3	0.19943576
94	0x3e1b9d58	0.1519674
95	0xbdd1989a	-0.102341846
96	0xbd5c5073	-0.05378766
97	0xbd312619	-0.043249223
98	0x3c57604f	0.01314552
99	0x3e79f404	0.24409491
100	0x3dc24b2a	0.09486993
101	0x3d4ed2d9	0.05049405
102	0x3d2af623	0.04173864
103	0x3dbb49ff	0.09144973
104	0x3d9e6515	0.077341236
105	0xbd7c938a	-0.06166414
106	0xbe241808	-0.16024792
107	0xbdda5815	-0.106613316
108	0x3e87ffa9	0.2656224
109	0xbda54465	-0.08069686
110	0x39b8c3bd	0.0003524105
111	0xbcf64db8	-0.030066356
112	0x3cba9c13	0.0227795
113	0x3cc8619e	0.02446061
114	0x3dc73d2c	0.097284645
115	0x3e16b880	0.14718819
116	0x3d8b8460	0.06812358
117	0x3d99bea3	0.07507064
118	0x3dc1fb03	0.09471705
119	0x3e9c74f9	0.30557993
120	0x3e5d0e0b	0.21587388
121	0x3e2277e1	0.15866043
122	0x3df3a887	0.118973784
123	0x3d778572	0.060429998
124	0xbb16ecbc	-0.0023029288
125	0xbca91711	-0.020640882
126	0x3ddde6ae	0.10835014
127	0x3e3966d1	0.18105628
128	0x3d229f4b	0.039702695
129	0x3b931131	0.0044881334
130	0x3e114b45	0.1418887
131	0x3df54f92	0.119780675
132	0x3ddef4b8	0.1088652
133	0x3e37fb50	0.17966962
134	0x3cda5f0c	0.02665665
135	0x3daaa53c	0.08332297
136	0x3e7124a1	0.23549129
137	0x3e1a4120	0.15063906
138	0x3dd878f7	0.10569947
139	0x3b582913	0.0032983467
140	0xbcddb838	-0.027065381
141	0xbcc121b3	-0.02357564
142	0x3da5a7e5	0.08088664
143	0x3d666a14	0.056253508
144	0xbd37def3	-0.044890355
145	0x3de6eebc	0.11276004
146	0x3d93b15c	0.07211563
147	0x3d161378	0.03663966
148	0xbc16e33f	-0.009209453
149	0x3d704d61	0.058667544
150	0x3ca8ed42	0.020620946
151	0x3db806dc	0.08985683
152	0x3d0e7d00	0.034787178
153	0xbca10841	-0.019657256
154	0xbb00483b	-0.0019574303
155	0x3d36d225	0.044634003
156	0x3e117384	0.14204222
157	0x3dcb0345	0.09912733
158	0x3e3ea4a7	0.18617497
159	0x3c5c0be2	0.013430567
160	0x3e4c4038	0.19946373
161	0x3e2eef97	0.17083584
162	0x3e54638d	0.207411
163	0x3e206611	0.15663935
164	0x3e0365a7	0.12831746
165	0x3de7dfd0	0.11321986
166	0x3e70e38b	0.23524301
167	0x3ba71a1f	0.0050995494
168	0x3cf80e0e	0.03028014
169	0x3d4d5701	0.0501318
170	0xbcfb63ab	-0.030687174
171	0xbe0b609e	-0.13611075
172	0x3c19b822	0.00938228
173	0x3cdf999e	0.02729493
174	0x3cb42431	0.021989914
175	0xbcbd81f3	-0.023133254
176	0x3bd5850a	0.0065161036
177	0x3dbd5beb	0.092460476
178	0x3d4eb38f	0.05046421
179	0x3dca7cf5	0.09887115
180	0x3d88d6f8	0.06681627
181	0x3c4b4364	0.012406204
182	0x3c233de2	0.0099634845
183	0x3d0005a0	0.031255364
184	0x3dca975c	0.09892151
185	0x3e135ad1	0.14390112
186	0x3de6c5ff	0.112682335
187	0x3ca23ea2	0.019805256
188	0x3d4facd8	0.050701946
189	0x3cb054a1	0.02152473
190	0x3d815105	0.063142814
191	0x3da31da5	0.079646386
192	0x3e446134	0.19177705
193	0x3ea6b3bc	0.32559
194	0x3e82bc7d	0.2553443
195	0x3c3a6310	0.011376157
196	0x3ce4b22a	0.027916986
197	0xbd6aa665	-0.057287592
198	0xbd5f8611	-0.054571215
199	0xbe312b88	-0.17301762
200	0xbe01da70	-0.12680984
201	0x3d941e5a	0.072323516
202	0xbc00122c	-0.0078168325
203	0xbe121b08	-0.14268124
204	0xbda81638	-0.08207363
205	0x3ce0f3dc	0.027460031
206	0x3ce9666e	0.028491225
207	0x3dad6653	0.084667824
208	0x3dd40f86	0.10354523
209	0xbcf05c0d	-0.029340768
210	0x3df6ef84	0.12057403
211	0x3ca9d5c1	0.020731809
212	0x3c4d6ca0	0.012538105
213	0x3d570f40	0.052504778
214	0xbd4be38a	-0.049777545
215	0x3d13fc89	0.03612951
216	0x3e1f9d6d	0.15587397
217	0xbd85cb27	-0.06532889
218	0x3d1afa67	0.03783646
219	0xbd727c3f	-0.05920052
220	0xbba8f034	-0.0051555876
221	0x3e3d473b	0.18484204
222	0x3e73b7e9	0.23800625
223	0x3bd6cc60	0.006555125
224	0xbc257c6e	-0.010100467
225	0x3cc512b7	0.024056775
226	0xbe2399f2	-0.15976694
227	0xbddb6106	-0.10711865
228	0xbe84aa98	-0.25911403
229	0xbdea4f38	-0.11440891
230	0xbc4e1797	-0.012578866
231	0xbe207b6d	-0.15672083
232	0xbdd3edbe	-0.1034808
233	0x3d074132	0.03302116
234	0x3c814987	0.01578213
235	0x3d50f7f9	0.051017735
236	0x3dc9830a	0.09839447
237	0xbbf1ea0a	-0.007382636
238	0xbdd0f350	-0.10202658
239	0xbdfab521	-0.12241579
240	0xbe59c63b	-0.21267025
241	0xbe501e09	-0.20323958
242	0xbe3b4731	-0.18288876
243	0xbe182420	-0.1485753
244	0xbd62273c	-0.055213198
245	0xbea8c299	-0.32960966
246	0xbe274ef5	-0.16338713
247	0x3af239b1	0.0018480328
248	0xbd9663cc	-0.073432535
249	0xbe08d930	-0.133641
250	0x3da1b52c	0.07895884
251	0xbc3fe32e	-0.011711879
252	0xbdd2673d	-0.102735974
253	0xbd5cec89	-0.053936515
254	0xbe9a69f3	-0.30158958
255	0xbe5b8162	-0.21436074

bias f4 [256]
0	0x3d59c135	0.053162772
1	0xbbb1004b	-0.0054016463
2	0xbdbd0809	-0.09230048
3	0x3c5305e4	0.012879822
4	0xbde23853	-0.11045899
5	0xbcf7f13c	-0.030266397
6	0xbcbc8266	-0.023011398
7	0xbcf0d3e4	-0.029397912
8	0x3e4b4b48	0.19852936
9	0x3d11cc4f	0.035595234
10	0x3b74604d	0.0037288845
11	0x3da68603	0.081310295
12	0xbe15e65c	-0.14638656
13	0xbdffb3ee	-0.12485491
14	0x3d2be0e3	0.041962516
15	0x3cf0334f	0.02932134
16	0x3d937c71	0.0720147
17	0xbd9b782f	-0.075912826
18	0xbda943f0	-0.08264911
19	0x3c4a58ec	0.012350302
20	0xbd8b9492	-0.06815447
21	0xbd82e216	-0.06390779
22	0x3e11d2db	0.14240591
23	0xbd8dd1f2	-0.069248095
24	0xbc3f3640	-0.011670649
25	0xbe08f813	-0.13375883
26	0x3c706834	0.014673281
27	0xbcb5aaa2	-0.02217609
28	0x3e06ea98	0.13175428
29	0xbd2af6a8	-0.041739136
30	0x3d873a5f	0.0660293
31	0xbda74933	-0.081682585
32	0x3d6ff5e9	0.058584128
33	0x3dc22f93	0.0948173
34	0xbdabe406	-0.083931014
35	0xbd917037	-0.071014814
36	0xbd0e5f7c	-0.03475903
37	0xbcd9bc29	-0.02657898
38	0x3d600c03	0.054698955
39	0xbc5ad1f5	-0.013355722
40	0xbb4ed211	-0.0031558315
41	0x3dab9438	0.0837788
42	0x3d4fd5b6	0.05074092
43	0xbd0f7bca	-0.035030164
44	0xbc9c5be4	-0.019086786
45	0xbe37dfdc	-0.1795649
46	0x3e0844d9	0.13307513
47	0x3d957a31	0.07298697
48	0xbc5ad72a	-0.013356963
49	0xbbd74717	-0.006569754
50	0x3cb9e2ff	0.022691248
51	0xbcd62758	-0.026141807
52	0xbe0ad212	-0.13556698
53	0xbcae91a1	-0.021309676
54	0x3c7b3c45	0.015334194
55	0x3dcd98df	0.100389235
56	0x3e5d1fb3	0.21594124
57	0x3bb069c0	0.0053837
58	0x3d75421c	0.0598775
59	0xbc8b0673	-0.016970849
60	0x3d2e5821	0.042564515
61	0x3c94efc5	0.018180737
62	0xbe503012	-0.20330837
63	0xbb576e3c	-0.0032872101
64	0x3d0b180d	0.033958483
65	0x3d83cb50	0.06435263
66	0xbcb4a673	-0.022052025
67	0x3dafe5cc	0.08588752
68	0x3d81a5a1	0.06330419
69	0x3e2e8238	0.17041862
70	0xbda669a6	-0.081256196
71	0x3d93f0d8	0.07223672
72	0xbd20b38b	-0.039233726
73	0xbeaaf9bc	-0.33393657
74	0xbd9264d8	-0.07148141
75	0xbd93fef6	-0.07226364
76	0x3ccd97d1	0.025096806
77	0xbcbb52cb	-0.022866627
78	0xbcc9acd6	-0.024618547
79	0xbe3b5768	-0.18295062
80	0xbcdf747d	-0.027277226
81	0xbd9badf2	-0.07601537
82	0xbdecad70	-0.11556518
83	0xbc605ac5	-0.013693516
84	0xbe339261	-0.17536308
85	0x3b99c71c	0.004692925
86	0xbe40ec77	-0.18840204
87	0x3dd781e8	0.105228245
88	0x3d8897a4	0.06669548
89	0xbd6b9370	-0.057513654
90	0x3cc7e301	0.024400236
91	0x3dd70c66	0.10500412
92	0xbd69739e	-0.056995027
93	0xbdaa6efe	-0.08321951
94	0x3db3a7d5	0.08772246
95	0xbd23b8a8	-0.039971024
96	0x3d9aaa03	0.075519584
97	0x3d91eba5	0.07125024
98	0x3e275c8d	0.16343899
99	0x3b5f197e	0.0034042294
100	0x3ce528c2	0.027973536
101	0x3c8a82b9	0.016908037
102	0x3a4c983d	0.00078046677
103	0xbe1a94c1	-0.15095808
104	0xbd86add5	-0.065761246
105	0xbca75b56	-0.020429295
106	0xbd188fe6	-0.037246607
107	0xbd583fed	-0.05279534
108	0xbc68fe34	-0.014220763
109	0x3e558393	0.20850973
110	0x3c04be08	0.008101948
111	0xbe55c755	-0.2087682
112	0xbb99d916	-0.004695068
113	0xbd4e1b6f	-0.05031913
114	0xbe88fe0e	-0.26756328
115	0xbdc42e84	-0.09579185
116	0x3e5aa538	0.21352088
117	0x3cd02377	0.025407536
118	0x3d390a05	0.04517557
119	0xbc40d99d	-0.011770633
120	0xbc94e6db	-0.018176487
121	0xbdceb49f	-0.100930445
122	0xbd21c8d9	-0.039498184
123	0x3da3ea63	0.0800369
124	0x3d869f31	0.06573332
125	0x3cc30375	0.02380536
126	0x3c9b5fdf	0.018966613
127	0xbda3a37a	-0.07990165
128	0xbda226e8	-0.07917577
129	0x3c03fed9	0.008056366
130	0x3d7fd570	0.06245941
131	0x3d5dda11	0.054163042
132	0x3d526d94	0.051374033
133	0xbd25b7ea	-0.040458597
134	0x3d6ab0c0	0.05729747
135	0xbbdd7590	-0.0067583993
136	0x3d4cd85c	0.050011024
137	0x3c685cab	0.01418225
138	0xbdeb02db	-0.11475154
139	0xbda31dc6	-0.07964663
140	0x3d1e6d48	0.038678437
141	0xbd6dbf9c	-0.05804406
142	0xbdbf3fac	-0.09338316
143	0xbd81c0d5	-0.06335608
144	0xbda44ed1	-0.080228455
145	0x3dfadba2	0.12248923
146	0xbc954f81	-0.018226387
147	0xbd27bb8d	-0.040950347
148	0xbe1db3a9	-0.15400566
149	0xbd21cdb9	-0.039502833
150	0xbe129fd0	-0.14318776
151	0x3c278a7b	0.010225887
152	0x3d1246b3	0.035711955
153	0xbdd5b790	-0.104354024
154	0xbd4fb415	-0.05070885
155	0xbc3b4f2e	-0.011432452
156	0xbd95795d	-0.07298539
157	0xbcd5f319	-0.026116895
158	0x3dec338f	0.115332715
159	0x3e00f30e	0.12592718
160	0xbd24b871	-0.04021496
161	0x3d520c47	0.05128124
162	0xbddebe64	-0.10876158
163	0xbd04e09c	-0.032440767
164	0x3c9958ef	0.018719165
165	0x3cd05490	0.025430948
166	0x3dc61272	0.09671487
167	0x3e1b6009	0.15173353
168	0x3d8f6c87	0.07003122
169	0xbc55f25d	-0.013058272
170	0x3e2e38bb	0.17013828
171	0x3d39f874	0.04540296
172	0x3ce40ad7	0.0278372
173	0xbe1589ee	-0.14603397
174	0xbd6f7d03	-0.05846883
175	0x3d8bd8e4	0.06828478
176	0xbc90c229	-0.017670708
177	0xbdd6150b	-0.104532324
178	0x3cf7d57b	0.030253163
179	0x3d720176	0.059083425
180	0x3bf83114	0.00757421
181	0x3c374789	0.011186489
182	0xbda7c0b8	-0.08191055
183	0xba95da9b	-0.0011432947
184	0xbd088953	-0.033334088
185	0xbd3f5f81	-0.04672194
186	0xbdc81978	-0.09770483
187	0x3e2a02dd	0.16602655
188	0xbdbc4679	-0.09193129
189	0x3dd6da1f	0.10490822
190	0xbd93d69d	-0.072186686
191	0xbb31c906	-0.0027127876
192	0xbb71358b	-0.0036805596
193	0xbd9f0ca9	-0.077660866
194	0xbc61712e	-0.013759894
195	0xbd41cd40	-0.047314882
196	0xbd4715d3	-0.048604798
197	0x3d8edf62	0.06976201
198	0xbd2d877b	-0.042365532
199	0xbdface98	-0.12246436
200	0xbd3f79d2	-0.046747036
201	0x3cb918bf	0.022594808
202	0x3d15e15c	0.036591873
203	0x3ccfcdca	0.025366683
204	0x3ca335b6	0.019923072
205	0x3d19ee5a	0.037580825
206	0x3c73ac20	0.014872581
207	0xbdb7efff	-0.089813225
208	0x3d51578d	0.051108886
209	0xbc4ef358	-0.01263126
210	0xbcfedf99	-0.031112479
211	0x3db9731d	0.09055159
212	0xbe38ac22	-0.18034413
213	0x3da4da05	0.080493964
214	0xbd092040	-0.03347802
215	0xbd68ba86	-0.056818508
216	0x3c807eda	0.015685488
217	0xbcdd1a4e	-0.026990082
218	0xbc8d4897	-0.017246528
219	0x3c37b039	0.011211448
220	0x3cd662c2	0.026170138
221	0xbdd9db99	-0.10637588
222	0x3d8a7f56	0.06762569
223	0xbd56ed86	-0.052472614
224	0x3d3a8f88	0.04554704
225	0xbd99b6ab	-0.07505544
226	0x3cdf3a82	0.027249578
227	0xbdcd4dc2	-0.10024597
228	0x3c731ca7	0.014838374
229	0xbdb0f587	-0.086405806
230	0xb9e96476	-0.00044516072
231	0xbde89fe5	-0.113586225
232	0xbbb9ab19	-0.0056661484
233	0x3dcd285f	0.10017466
234	0xbd2268a1	-0.039650563
235	0xbe058f12	-0.13042858
236	0xbdc4c349	-0.0960756
237	0x3bef3147	0.0072995755
238	0x3d18d367	0.037310984
239	0x3d79d59e	0.060994737
240	0x3cb5ecda	0.022207666
241	0x3df9094c	0.12159976
242	0x3d72f88a	0.059319057
243	0xbdd689a1	-0.104754694
244	0xbd0b8c95	-0.034069616
245	0x3d48be24	0.049009457
246	0x3d800e4b	0.06252726
247	0x3d820bc6	0.06349902
248	0xbde1c41e	-0.110237345
249	0xbde80a5c	-0.11330101
250	0x3e03f4aa	0.128863
251	0xbe06cb73	-0.13163547
252	0x3e3d7ea0	0.18505335
253	0x3d4bc04f	0.049743947
254	0xbe18891c	-0.14896053
255	0xbdf555e6	-0.119792745

weight f4 [128, 256]
0	0xbeee71da	-0.46571237
1	0x3dc3fbf2	0.09569539
2	0xbda724be	-0.08161305
3	0x3c58fbe1	0.013243646
4	0xbe499dac	-0.19689053
5	0xbe0c7d7f	-0.13719748
6	0x3d80a509	0.06281478
7	0xbe1cceb0	-0.1531322
8	0x3dd4f65d	0.103985526
9	0x3e3d24c9	0.18471064
10	0x3d368de1	0.0445689
11	0xbdfd1449	-0.12357385
12	0x3e13b7e0	0.14425611
13	0x3d94d687	0.0726748
14	0x3c0eed01	0.008723498
15	0x3e37a820	0.17935228
16	0x3ccb0c5c	0.024786167
17	0xbe88ba72	-0.26704746
18	0xbdf26142	-0.11834957
19	0xbd5bb612	-0.053640433
20	0x3db50829	0.08839447
21	0xbe8db9b5	-0.27680746
22	0xbe9e6027	-0.30932733
23	0xbcc677f6	-0.024227124
24	0x3e53d853	0.2068799
25	0x3e1ecadb	0.1550707
26	0x3d54bab3	0.051935863
27	0xbd5e6dd5	-0.054303963
28	0x3c9b3805	0.01894761
29	0x3d94cf4a	0.072661
30	0x3db6952a	0.089151695
31	0x3e560b48	0.20902741
32	0x3d5816ca	0.05275611
33	0xbc950150	-0.018189102
34	0x3e57f819	0.21090735
35	0x3d7ea324	0.0621673
36	0xbc7c8715	-0.015413065
37	0xbcd9717e	-0.026543375
38	0xbc9a9d96	-0.018873971
39	0x3e3ba6d2	0.18325356
40	0xbd8d6944	-0.069048434
41	0xbeb74db2	-0.35801464
42	0x3e464377	0.19361673
43	0x3c9b496d	0.01895591
44	0x3e8d8493	0.2764021
45	0x3e379c48	0.1793071
46	0xbe24b594	-0.16084892
47	0xbe388830	-0.18020701
48	0x3da1b965	0.07896689
49	0x3dedffc7	0.11621051
50	0x3bdf294a	0.006810342
51	0x3db1f64d	0.08689556
52	0x3d6c42b8	0.057680815
53	0x3d23b7bc	0.039970145
54	0xbedfd207	-0.43714926
55	0x3e79c07c	0.24389833
56	0x3e68b39b	0.22724764
57	0xbd005be4	-0.031337634
58	0xbd4beedb	-0.049788337
59	0xbe32add0	-0.17449117
60	0x3dfe95a4	0.124308854
61	0x3da82a22	0.08211161
62	0x3e51561e	0.20443007
63	0x3e747bba	0.23875323
64	0xbe9fee7f	-0.31236646
65	0x3def94b5	0.116982855
66	0xbd90c697	-0.07069128
67	0xbef853c0	-0.48501396
68	0xbe19495a	-0.14969388
69	0x3ce1a419	0.027544068
70	0x3d20edec	0.0392894
71	0x3dedbfe7	0.11608868
72	0xbc91e3c7	-0.017808808
73	0x3d66dc38	0.05636236
74	0x3dc2fdcd	0.09521065
75	0x3e34e10d	0.17663975
76	0x3d59bb57	0.053157177
77	0xbd16383f	-0.036674734
78	0x3b4519ed	0.0030075267
79	0xbb02841c	-0.001991517
80	0x3cb2fbaf	0.021848528
81	0xbd288365	-0.041140933
82	0xbd6b6c0b	-0.057476085
83	0x3e0460b8	0.1292752
84	0x3d794bdb	0.060863357
85	0xbe5e86f4	-0.21731168
86	0x3e1134b6	0.14180264
87	0xbe5f5dbf	-0.21813105
88	0xbda4f532	-0.0805458
89	0x3e039afa	0.12852088
90	0xbe41140c	-0.18855304
91	0xbe2dcea4	-0.16973358
92	0xbe2d3b07	-0.16917048
93	0xbd3e63a0	-0.04648173
94	0x3e91a155	0.284434
95	0xbf02ff1f	-0.51170534
96	0x3a1aa7df	0.00058996485
97	0x3e176a01	0.14786531
98	0x3b4475bf	0.0029977409
99	0x3eb1f43d	0.34756652
100	0x3d917c68	0.07103807
101	0x3d9bb216	0.076023266
102	0x3d23c7ab	0.03998534
103	0x3d228b7b	0.0396838
104	0x3da526c2	0.08064033
105	0x3e2c6db1	0.16838719
106	0x3de04276	0.109501764
107	0x3e69045c	0.22755569
108	0xbd53e006	-0.051727317
109	0xbcc3dcf5	-0.023909071
110	0xbaf109b1	-0.0018389729
111	0xbc0eeced	-0.00872348
112	0xbe01ba8c	-0.12668818
113	0xbeb5a9b9	-0.3548105
114	0x3e7e5688	0.24837697
115	0xbe19ca26	-0.1501852
116	0xbc854825	-0.016269753
117	0x3e3c5d4a	0.18394962
118	0x3e683654	0.22676975
119	0xbd08edf1	-0.033430044
120	0xbe41bcc0	-0.18919659
121	0xba3fd68e	-0.0007318043
122	0xbdd1ff4f	-0.102537744
123	0x3e892fee	0.2679438
124	0xbe97851e	-0.29593748
125	0xbd16c764	-0.036811247
126	0xbe17c33e	-0.14820573
127	0x3d3230a8	0.043503433
128	0xbd986492	-0.07441057
129	0xbe5da2a1	-0.21644069
130	0x3d4e4225	0.05035605
131	0x3d6e134e	0.05812388
132	0x3e22ba44	0.15891367
133	0x3a519191	0.00079944084
134	0xbebdb76c	-0.37054002
135	0xbe0d7a03	-0.13816075
136	0xbb25a4e8	-0.0025275294
137	0x3b6eca53	0.0036436513
138	0x3db65bd9	0.08904237
139	0x3daa2043	0.08306935
140	0x3dbce018	0.0922243
141	0xbc56b8c9	-0.01310558
142	0x3e5fe35c	0.21864074
143	0x3d39aca7	0.04533067
144	0x3da2966c	0.07938847
145	0x3dc5607b	0.09637543
146	0x3d916ac9	0.07100446
147	0x3daee95b	0.08540603
148	0x3e1119a1	0.14169933
149	0xbcf7b407	-0.03023721
150	0xbd84e67e	-0.064892754
151	0xbe0de6f0	-0.13857627
152	0xbd29aeeb	-0.04142658
153	0xbe7475d5	-0.23873074
154	0xbb4cc8e1	-0.0031247663
155	0x3dc6649c	0.096871585
156	0xbd83dd10	-0.06438649
157	0x3d6e2517	0.05814084
158	0x3c33edb9	0.0109819705
159	0xbe0f0f88	-0.13970768
160	0x3dcf968e	0.10136138
161	0x3df1c3b0	0.118049026
162	0xb97a44ad	-0.00023867442
163	0xbdcc52c1	-0.099767216
164	0x3db56f3a	0.088591054
165	0x3d14209a	0.036163904
166	0x3d61de16	0.05514344
167	0x3d8b3dd5	0.06798903
168	0x3e057f97	0.13036953
169	0x3d3af8ee	0.045647554
170	0x3ef12501	0.47098544
171	0x3c470edb	0.012149538
172	0x3bf7cb07	0.0075620445
173	0xbd3480cc	-0.044068143
174	0xbd5024d3	-0.05081637
175	0x3d2a95ac	0.041646644
176	0xbef97f9d	-0.48730174
177	0xbe06f696	-0.13180003
178	0x3e093421	0.13398792
179	0xbeaf6509	-0.3425677
180	0x3e013ae5	0.12620123
181	0x3d945368	0.07242471
182	0x3d7fde4f	0.06246787
183	0xbe323134	-0.17401582
184	0x3ce6fb78	0.028196082
185	0x3da58b12	0.08083166
186	0x3d312fd9	0.04325852
187	0xbe403cb6	-0.1877316
188	0xbd81ed81	-0.063441284
189	0xbe9b6c9f	-0.3035631
190	0xbe9f99c8	-0.31172013
191	0x3d479c43	0.048733007
192	0xbd0a4597	-0.033757772
193	0x3d8bda26	0.06828718
194	0x3dc7814e	0.0974146
195	0x3d67fea0	0.056639314
196	0x3e8073c7	0.2508833
197	0xbd643ede	-0.055724017
198	0x3d7011fd	0.058610905
199	0xbceb4738	-0.028720483
200	0xbd89f100	-0.0673542
201	0xbba09140	-0.0049001276
202	0xbd31f3f8	-0.043445557
203	0x3dd5645f	0.10419535
204	0x3df8ca49	0.12147958
205	0xbc95f16b	-0.018303594
206	0xbcdec91b	-0.027195504
207	0xbd2000e3	-0.039063346
208	0xbe836b9c	-0.25668037
209	0x3d2cfed3	0.042235207
210	0xbc125862	-0.008932205
211	0xbd1ebbaa	-0.03875319
212	0xbd6172f8	-0.055041283
213	0xbea9ebbd	-0.33187667
214	0xbd442cde	-0.04789435
215	0xbdffc1c1	-0.124881275
216	0xbd9804d4	-0.07422796
217	0x3e43b587	0.19112216
218	0x3e7aaa97	0.24479137
219	0x3e20bdc1	0.15697385
220	0x3e3a9dc1	0.18224241
221	0x3e6e3fb6	0.23266491
222	0xbe4f73ed	-0.20259066
223	0xbc6e2b02	-0.014536621
224	0xbe6a375a	-0.22872677
225	0x3e0258e7	0.12729226
226	0x3dc1dd87	0.09466081
227	0x3d41246c	0.047153875
228	0xbe739ed8	-0.23791063
229	0x3d32cb0a	0.043650664
230	0xbe9a51ec	-0.30140626
231	0x3cc7a92d	0.024372661
232	0xbd814ab7	-0.06313079
233	0xbee3ad5d	-0.44468203
234	0x3e6cccfe	0.23125073
235	0x3dd39bd2	0.10332455
236	0xbde59417	-0.112098865
237	0x3e9965a1	0.2996035
238	0x3ea653d0	0.3248582
239	0xbd133632	-0.035940357
240	0xbd1069a1	-0.035256986
241	0xbe083c4a	-0.13304248
242	0xbeb31ecf	-0.34984443
243	0x3d7196e2	0.058981784
244	0xbdb34c55	-0.087547936
245	0xbdd20665	-0.10255126
246	0x3ebae3dc	0.36501968
247	0x3dbf9f09	0.093565054
248	0xbe915f70	-0.28393126
249	0x3cbbad2b	0.022909721
250	0x3cb9d949	0.022686617
251	0x3b03acdc	0.0020092046
252	0xbd28d49e	-0.041218393
253	0xbe8b886e	-0.27252525
254	0xbe046378	-0.1292857
255	0x3dddc95c	0.10829422

bias f4 [128]
0	0xbe2b6c73	-0.16740589
1	0xbd34eddb	-0.04417215
2	0x3e57f798	0.21090543
3	0x3ca7248e	0.020403173
4	0x3e5be32e	0.21473381
5	0x3dd3bcf7	0.103387766
6	0xbd8f3c22	-0.06993891
7	0x3c5d24e8	0.013497569
8	0xbd759b54	-0.059962586
9	0x3dd78ec3	0.105252765
10	0xbdb7f9b8	-0.08983177
11	0xbdec8bdc	-0.115501136
12	0xbb704d6f	-0.0036667248
13	0x3c3011ad	0.010746402
14	0x3d40b3cc	0.047046468
15	0x3d07fcd7	0.03320011
16	0x3da7f776	0.08201496
17	0x3d99d6bc	0.075116605
18	0x3e8d3b72	0.27584416
19	0xbda94ae1	-0.08266235
20	0x3de9e7cc	0.11421165
21	0x3c549b42	0.0129764695
22	0xbd6d3641	-0.05791307
23	0xbe152396	-0.14564356
24	0xbdc2c4f5	-0.09510223
25	0xbe324fd4	-0.17413265
26	0x3cefc551	0.029268892
27	0xbd66cd62	-0.056348212
28	0xbe16a94f	-0.14713024
29	0x3e4fece7	0.20305215
30	0x3e3d3185	0.18475921
31	0x3c596801	0.013269425
32	0xbc0eeb7e	-0.008723138
33	0xbd461fb4	-0.04837008
34	0x3e448d0d	0.19194432
35	0x3e4a6a5e	0.19767138
36	0xbd4932f2	-0.04912085
37	0x3ddfcc47	0.10927635
38	0x3d7c2b14	0.06156452
39	0x3ddeb756	0.10874812
40	0xbd966e9c	-0.07345316
41	0x3df890b0	0.12136972
42	0xbb900d90	-0.004396148
43	0x3dd87dce	0.1057087
44	0x3dc1d90c	0.094652265
45	0x3d781622	0.060567982
46	0x3d120dea	0.0356578
47	0x3e2e88c9	0.17044367
48	0xbca8627e	-0.020554777
49	0xbd0b59b0	-0.03402108
50	0x3d811081	0.06301976
51	0x3df8b16c	0.121432155
52	0x3e306f63	0.1722999
53	0x3e630b54	0.2217229
54	0xbdc8a42f	-0.097969405
55	0xbbb20b33	-0.005433464
56	0xbe690bff	-0.22758482
57	0x3ccaa0a1	0.024734797
58	0x3d0796e6	0.033102892
59	0xbdc0f21b	-0.09421178
60	0x3e68f8ed	0.22751208
61	0x3ddd192e	0.10795818
62	0xbe2b911f	-0.16754578
63	0x3d2f494a	0.042794503
64	0x3e00a7a6	0.12563953
65	0xbe28cc6b	-0.1648423
66	0x3df4c8c7	0.11952358
67	0xbdb4fc8c	-0.08837232
68	0xbdcb8a9b	-0.09938546
69	0xbd6ffc3b	-0.058590155
70	0xbdc766ad	-0.09736381
71	0x3e91521c	0.28382957
72	0x3a3c6f50	0.0007188218
73	0x3d56a8dc	0.05240713
74	0x3db9fd9b	0.090815745
75	0xbd983b6a	-0.07433207
76	0xbd52cbb9	-0.051463816
77	0xbdb6a7d0	-0.089187264
78	0xbe3546f0	-0.17702842
79	0xbddef60d	-0.10886774
80	0x3e8bad15	0.2728049
81	0x3e86e7d8	0.26348758
82	0x3cb84a32	0.022496317
83	0x3bb816ff	0.0056179757
84	0x3dc0f887	0.09422403
85	0x3e5391fa	0.20661154
86	0xbcab7e6c	-0.020934306
87	0x3e05b978	0.13059032
88	0x3e713194	0.23554069
89	0x3e780220	0.2421956
90	0xbe5ac65b	-0.21364729
91	0x3d753014	0.059860304
92	0x3e377c7d	0.17918582
93	0xbc660519	-0.014039301
94	0xbca59fdb	-0.020217827
95	0x3d07bcb8	0.03313896
96	0x3e04f061	0.12982322
97	0xbd8e2af7	-0.06941789
98	0xbea09a09	-0.3136752
99	0xbd212d74	-0.039349988
100	0xbe0c1c09	-0.1368257
101	0x3d51f537	0.051259246
102	0xbc38836e	-0.011261804
103	0xbdbe65fb	-0.09296795
104	0x3e39979a	0.18124238
105	0xbcecd927	-0.02891214
106	0xbda02886	-0.07820229
107	0x3e65b01e	0.22430465
108	0xbd229023	-0.03968824
109	0x3bfa2e21	0.0076348935
110	0xbe751954	-0.23935443
111	0x3d455406	0.048175834
112	0xbe3c7552	-0.18404129
113	0x3e42f628	0.19039214
114	0xbe1a598a	-0.15073219
115	0xbe2aab48	-0.16666901
116	0xbe7ffc93	-0.24998693
117	0xbe42cc36	-0.19023213
118	0xbd2b81e2	-0.041871913
119	0xb9827db5	-0.0002488919
120	0x3de1dad7	0.110280685
121	0x3d8ef7c6	0.06980853
122	0x3d865b2f	0.06560361
123	0xbcd8e784	-0.026477583
124	0x3dbdcc5c	0.09267494
125	0xbe88941b	-0.26675496
126	0xbe094655	-0.13405736
127	0xbdb7a8b7	-0.08967727

weight f4 [64, 128]
0	0xbdfd5770	-0.12370193
1	0x3e93512c	0.28772867
2	0xbd324224	-0.043520108
3	0xbdd36a15	-0.10322968
4	0xbd14caec	-0.036326334
5	0x3df39fac	0.11895689
6	0x3bc30dd7	0.0059525776
7	0x3d691d8b	0.05691294
8	0x3dfb095a	0.12257643
9	0xbb987399	-0.004652452
10	0x3dab0fbe	0.08352612
11	0x3bd6b039	0.006551769
12	0xbd5aba6f	-0.053400453
13	0xbdc07675	-0.09397594
14	0x3e24d481	0.16096689
15	0x3e16a9a8	0.14713156
16	0x3d6ca417	0.057773676
17	0xbda857be	-0.082198605
18	0x3c502fe1	0.012706728
19	0xbd7cb674	-0.06169744
20	0xbdb0b499	-0.08628196
21	0xbe2ea00e	-0.17053244
22	0xbdc03926	-0.093859
23	0xbc5858a1	-0.0132047245
24	0xbe3cbf41	-0.18432333
25	0x3dba6483	0.09101202
26	0x3dda5b82	0.10661985
27	0x3cc0f214	0.023552932
28	0xbc55f1b3	-0.013058114
29	0xbe613c0e	-0.21995565
30	0xbc659dce	-0.014014674
31	0x3cda0ad8	0.026616499
32	0x3e1bd63c	0.15218443
33	0x3da0f03e	0.078583226
34	0xbd8b9676	-0.068158075
35	0xbe5ef19b	-0.21771853
36	0x3e3c3f61	0.18383552
37	0x3e11a409	0.1422273
38	0xbe2109b9	-0.15726365
39	0xbed1e7e0	-0.4099722
40	0x3e678a8a	0.22611442
41	0x3e0086e5	0.12551458
42	0x3d657857	0.05602297
43	0xbe3047bb	-0.17214863
44	0xbdb7a936	-0.08967821
45	0x3e0f1bd4	0.1397546
46	0x3d0518bd	0.032494295
47	0xbde83c42	-0.11339618
48	0xbd8e3a00	-0.06944656
49	0x3dc6753d	0.0969033
50	0xbd070ba2	-0.03297008
51	0xbafaa651	-0.0019123052
52	0x3daa60b9	0.0831923
53	0xbd857aca	-0.06517561
54	0xbd9e3ef2	-0.077268496
55	0x3cbf7018	0.02336888
56	0xbe9d0f39	-0.30675676
57	0xbea13502	-0.31485754
58	0xbeb928bc	-0.3616389
59	0xb9bb7a09	-0.00035758343
60	0xbe721d0b	-0.23643892
61	0x3d727f8b	0.059203666
62	0xbd3f3e2e	-0.04669016
63	0xbdaf460b	-0.085582815
64	0x3d02a935	0.03189965
65	0xbd29ea1b	-0.041483026
66	0x3e2efd91	0.17088915
67	0x3ea539fe	0.32270807
68	0x3cea5a3f	0.028607486
69	0xbc9bbd97	-0.019011302
70	0xbd5e6fb5	-0.05430575
71	0x3d3a9a84	0.045557514
72	0xbd6d8190	-0.05798489
73	0x3db57c39	0.08861584
74	0x3da88a2f	0.082294814
75	0x3d4d3416	0.0500985
76	0xbde3d818	-0.11125201
77	0xbe7731ee	-0.2414014
78	0x3d6fb759	0.058524463
79	0x3e4803da	0.19532719
80	0xbe865ee3	-0.26244268
81	0xbc58f3a2	-0.01324168
82	0x3da9c338	0.08289188
83	0xbe0368ce	-0.12832949
84	0x3d0e25a2	0.03470386
85	0x3d06c884	0.03290607
86	0xbe7600b8	-0.24023712
87	0xbdba8c70	-0.091088176
88	0xbdd770ad	-0.10519538
89	0x3e205b7d	0.156599
90	0xbd39d02f	-0.045364555
91	0xbda32883	-0.07966711
92	0xbd8bab14	-0.0681974
93	0xbc97b30d	-0.018517995
94	0x3e580d31	0.21098782
95	0xbd8f1472	-0.069863215
96	0x3e53f612	0.20699337
97	0x3c84dd79	0.016218888
98	0xbd995481	-0.07486821
99	0xbdb7ee01	-0.089809425
100	0xbdb14139	-0.08655018
101	0x3e995f97	0.29955742
102	0xbc68b893	-0.014204162
103	0x3e00d064	0.12579495
104	0x3c79008c	0.015197884
105	0x3d9d5ae0	0.07683349
106	0xbe392222	-0.18079427
107	0xbcaf2ffd	-0.021385187
108	0x3cf156e3	0.029460376
109	0x3e0fe827	0.14053403
110	0x3cf59cf5	0.02998207
111	0x3e371305	0.17878349
112	0xbe8f8137	-0.2802827
113	0x3e3b42f6	0.18287262
114	0xbe337e68	-0.17528689
115	0x3e335c02	0.17515567
116	0x3dd5411a	0.10412808
117	0xbddd2fd5	-0.10800139
118	0x3d56c7fe	0.05243682
119	0xbddbad03	-0.10726359
120	0x3d7de10b	0.061982196
121	0xbcc363a9	-0.023851233
122	0xbe2fb686	-0.17159471
123	0xbe3cf5ac	-0.18453091
124	0xbdbcab10	-0.09212315
125	0xbdf0c6be	-0.11756657
126	0x3dfddbbb	0.12395426
127	0xbd1c2f13	-0.03813083
128	0xbcc9d20d	-0.024636293
129	0xbc78291d	-0.015146521
130	0x3c391569	0.0112966085
131	0x3d14f8f2	0.036370225
132	0xbc23e3be	-0.010003028
133	0xbd83cb27	-0.064352326
134	0xbd74caf6	-0.05976387
135	0xbdd36130	-0.103212714
136	0xbdab9fc4	-0.08380082
137	0xbdb576e0	-0.08860564
138	0x3c109542	0.008824648
139	0xbdb204a2	-0.0869229
140	0xbdb9d88a	-0.09074505
141	0xbdabb99d	-0.08385012
142	0xbd88a108	-0.06671339
143	0x3c982ecd	0.018577004
144	0xbd023f84	-0.031798854
145	0xbd9f6a9c	-0.07784006
146	0xbcd1f074	-0.025627352
147	0x3c77d8f7	0.015127412
148	0x3b8fabe6	0.0043845056
149	0xbcecff89	-0.028930442
150	0xbd81f756	-0.06346004
151	0xbde08157	-0.109621696
152	0x3d284468	0.041080862
153	0xbd66d783	-0.05635787
154	0xbd70aad1	-0.058756653
155	0xbcb79e79	-0.022414433
156	0xba6d14a5	-0.0009043909
157	0xbdc3c048	-0.09558159
158	0xbc6cfad3	-0.014464098
159	0x3c08ff35	0.008361627
160	0x3c234ea2	0.009967478
161	0xbb6e6669	-0.003637696
162	0x3d57e2ee	0.05270665
163	0xbdb09b99	-0.08623428
164	0xbd981a43	-0.07426884
165	0xba6ce7df	-0.0009037237
166	0xbc6816f1	-0.014165626
167	0xbdfe07bd	-0.1240382
168	0x3ccae39f	0.024766741
169	0xbc49253f	-0.012276947
170	0xbcd7d69b	-0.026347449
171	0xbd99baf7	-0.07506364
172	0xbd16a035	-0.03677388
173	0xbd8af283	-0.06784537
174	0x3d389e3b	0.045072775
175	0xbd98514a	-0.0743738
176	0xbded1540	-0.11576319
177	0xbdd3a626	-0.10334425
178	0xbd1e7b03	-0.038691532
179	0xbcfc85ea	-0.030825574
180	0x3c800c52	0.015630875
181	0xbd94f70e	-0.072736844
182	0x3d2f9a48	0.042871743
183	0xbd3a0f77	-0.045424905
184	0x3cd4849d	0.025942141
185	0xbd9aa69a	-0.07551308
186	0xbd480adc	-0.04883848
187	0x3dbe67bf	0.09297132
188	0xbcc21bb5	-0.023694852
189	0xbdb2ea40	-0.08736086
190	0xbd75899f	-0.0599457
191	0xbd119412	-0.0355416
192	0x3d146b80	0.036235332
193	0x3d984021	0.074341066
194	0xbc86bb06	-0.016446602
195	0xbd4577bd	-0.048209894
196	0x3cd63356	0.026147526
197	0x3d80aee5	0.062833585
198	0x3b5de8c9	0.0033860675
199	0x3d1a4d3b	0.03767131
200	0xbd52a3e2	-0.051425822
201	0xbd7f0b39	-0.062266562
202	0xbd535b41	-0.0516007
203	0xbd3dda3d	-0.046350706
204	0xbcbfa2a3	-0.02339298
205	0x3cc3b470	0.02388975
206	0xbd31b2a8	-0.04338327
207	0x3d4545ed	0.04816239
208	0xbdaff800	-0.08592224
209	0x3b72516f	0.0036974808
210	0x3b6ef4dc	0.0036461866
211	0xbc87de08	-0.016585365
212	0x3d023904	0.031792656
213	0xbd9ab434	-0.07553902
214	0xbdadda6c	-0.08488926
215	0xbddd7e81	-0.10815144
216	0xbdbcacad	-0.09212623
217	0x3d512f43	0.051070463
218	0x3d14472b	0.036200684
219	0xbd6e2fb4	-0.058150962
220	0xbd2fe605	-0.042943973
221	0x3d5f7d95	0.054563124
222	0xbcd7ccc9	-0.026342766
223	0xbd3816aa	-0.04494349
224	0xbd82e045	-0.06390432
225	0x3c9665c4	0.018359073
226	0xbdc9d19d	-0.09854434
227	0xbae1e66a	-0.0017234806
228	0x3d04af4f	0.03239375
229	0x3d751f05	0.059844036
230	0xbda575a8	-0.08079082
231	0x3d008088	0.031372577
232	0x3d05a00b	0.032623332
233	0xbcca5023	-0.024696415
234	0x3b407880	0.0029368699
235	0x3cf70e2d	0.030158127
236	0xbd676c56	-0.0564998
237	0xbda58a71	-0.08083046
238	0xbcc12809	-0.02357866
239	0xbb8a0d5c	-0.0042130183
240	0x3d2dc9be	0.042428724
241	0xbca92e24	-0.020651884
242	0xbd0145d6	-0.03156074
243	0x3c668f03	0.014072183
244	0xbddaad8b	-0.10677632
245	0x3d323c30	0.04351443
246	0xbc7b704c	-0.015346598
247	0xbd85530e	-0.06509982
248	0xbd88239c	-0.06647417
249	0xbc914986	-0.017735254
250	0x3c1a73f3	0.0094270585
251	0x3c5f6037	0.013633779
252	0x3ca2390e	0.019802596
253	0x3cfedb13	0.031110322
254	0xbd126ae0	-0.035746455
255	0x3b6de4df	0.0036299748

bias f4 [64]
0	0xbcb31f64	-0.021865554
1	0xbd6cf107	-0.05784705
2	0x3d2b9d89	0.041898284
3	0xbdcbb2c3	-0.099462055
4	0x3e165a81	0.14682962
5	0x3e423a81	0.1896763
6	0xbe13dc78	-0.14439571
7	0xbc726c21	-0.014796288
8	0x3e855f82	0.2604943
9	0x3e38de35	0.18053515
10	0x3ed3a5c2	0.413374
11	0xbc5857cd	-0.013204527
12	0xbd83e7e0	-0.06440711
13	0x3d71b119	0.059006784
14	0x3e25ba95	0.16184457
15	0x3cf663bc	0.030076854
16	0x3dfc7f7b	0.123290025
17	0x3e39d4dc	0.18147606
18	0x3d6e5e54	0.058195427
19	0xbdc2f55d	-0.095194556
20	0x3ddaa984	0.10676864
21	0x3d451bb4	0.048122123
22	0x3d4c06c7	0.04981115
23	0xbd4e9363	-0.050433528
24	0x3d90bca7	0.070672326
25	0x3e142ec1	0.1447096
26	0xbd44bea9	-0.04803339
27	0xbd05e1d2	-0.032686062
28	0x3e94fcfd	0.29099265
29	0xbe21f7d1	-0.1581719
30	0x3e4b5dcb	0.19859998
31	0xbd671776	-0.05641886
32	0x3d8e6fc2	0.0695491
33	0x3e707e69	0.23485722
34	0xbdcecaa0	-0.100972414
35	0x3d37ea03	0.044900905
36	0xbdbc3ce9	-0.09191305
37	0x3b9f2234	0.0048563723
38	0xbe0f99f8	-0.14023578
39	0xbd7f8b3e	-0.06238865
40	0x3e35fe61	0.17772819
41	0xbad2b5bd	-0.0016075891
42	0xbe6b5b1b	-0.22983973
43	0xbd893339	-0.06699223
44	0x3d8dc22e	0.069218025
45	0x3e850c9f	0.25986192
46	0x3da75334	0.081701666
47	0x3d768226	0.060182713
48	0xbe0a8299	-0.13526382
49	0xbdb3f5d8	-0.08787125
50	0x3e5d34e9	0.21602215
51	0xbdbbd8da	-0.091722205
52	0x3ec34154	0.3813578
53	0x3ea94193	0.33057842
54	0xbdc81814	-0.097702175
55	0xbdcd610c	-0.10028276
56	0xbd885843	-0.066574596
57	0xbe0af4fb	-0.13570015
58	0x3dbcd597	0.092204265
59	0x3eb821a9	0.3596318
60	0xbc7a7081	-0.015285612
61	0x3e3b9c31	0.18321301
62	0xbc4ff63b	-0.012692983
63	0xbc9fcec8	-0.01950778

weight f4 [10, 64]
0	0xbca0f07f	-0.019645927
1	0x3d56d8e9	0.052452955
2	0xbe7514ec	-0.23933762
3	0xbeb836a8	-0.359792
4	0x3dddf2aa	0.108373
5	0x3e0f4eea	0.13994947
6	0x3e5a6acc	0.21329802
7	0x3d24ef3d	0.040267218
8	0x3e12c6de	0.14333674
9	0xbe45a346	-0.19300565
10	0xbea8a1a6	-0.32935828
11	0x3deb0253	0.11475053
12	0xbe330edc	-0.17486137
13	0x3c6eced0	0.014575675
14	0xbde0ef4a	-0.10983141
15	0x3e410ca2	0.18852475
16	0xbeeefe59	-0.46678427
17	0xbcd12f06	-0.025535118
18	0x3e41fe82	0.18944743
19	0x3df149d3	0.11781659
20	0x3e01c34b	0.12672155
21	0x3e670f88	0.22564518
22	0x3bcac223	0.0061876937
23	0xbdd73540	-0.105082035
24	0xbed27d0e	-0.41111034
25	0xbe540e9a	-0.20708695
26	0xbebdeeca	-0.37096244
27	0xbd39af92	-0.045333453
28	0x3df37a34	0.11888543
29	0xbe334574	-0.17506963
30	0x3e1273de	0.14302012
31	0xbd2f9a2d	-0.042871643
32	0xbde93475	-0.113869585
33	0xbe3bb83b	-0.18331997
34	0xbc1b39ca	-0.009474227
35	0xbe726d73	-0.23674564
36	0xbedd1151	-0.43177274
37	0xbe905901	-0.28192905
38	0xbe6903c3	-0.22755341
39	0xbdf8ed84	-0.121546775
40	0x3d0e9842	0.034813173
41	0x3e1c2016	0.15246615
42	0x3c778540	0.015107453
43	0x3e07b331	0.1325195
44	0xbdf61f43	-0.120176814
45	0xbe396310	-0.18104196
46	0xbe793520	-0.24336672
47	0xbe28aeaa	-0.16472879
48	0xbdac78b3	-0.08421459
49	0xbd338c23	-0.043834817
50	0xbea00754	-0.3125559
51	0x3da7a4c6	0.08185725
52	0xbeb562aa	-0.35426837
53	0x3e2e8480	0.17042732
54	0xbeb8177c	-0.35955417
55	0xbd760753	-0.06006558
56	0xbcfbb090	-0.03072384
57	0x3e8e6c33	0.27816924
58	0xbebeda2b	-0.37275824
59	0xbea614d0	-0.32437754
60	0xbe7c1dca	-0.24620739
61	0xbe0789ca	-0.13236156
62	0x3d51f5da	0.051259853
63	0x3d9eef32	0.07760467
64	0xbecce65e	-0.40019506
65	0xbd2c2b91	-0.042033736
66	0x3d37e0bf	0.04489207
67	0x3e0b5e6b	0.13610236
68	0xbdc4ad4d	-0.09603367
69	0xbb2ce066	-0.002637887
70	0xbe15c31d	-0.14625211
71	0xbce379bd	-0.02776801
72	0x3d40f624	0.047109738
73	0xbc9a960f	-0.018870382
74	0xbd0b8ba9	-0.034068737
75	0x3ea77430	0.32705832
76	0x3db5fc8d	0.08886061
77	0xbeb1ab19	-0.3470085
78	0x3d905c5e	0.07048868
79	0xbe3c7120	-0.18402529
80	0x3dde6d00	0.10860634
81	0xbdc8956e	-0.097941265
82	0xbf3e0c0f	-0.7423715
83	0xbe121a1d	-0.14267774
84	0xbd090497	-0.033451643
85	0x3dfb646a	0.12275012
86	0xbdcafdf8	-0.09911722
87	0xbe2de036	-0.16980061
88	0xbd1381a1	-0.036012296
89	0x3d2249a0	0.039620996
90	0x3da14129	0.078737564
91	0xbe6103d5	-0.21974118
92	0xbd883faa	-0.06652768
93	0x3e778fc7	0.2417594
94	0x3e57179e	0.21005103
95	0xbda5f1e2	-0.08102776
96	0xbe9ebbeb	-0.31002745
97	0x3d896fea	0.06710799
98	0xbc05405d	-0.008133021
99	0xbeabb950	-0.3353982
100	0x3e21b1d6	0.15790495
101	0xbe8819b6	-0.26582116
102	0x3e7cc716	0.2468532
103	0xbdc6f959	-0.09715528
104	0x3d4e4708	0.05036071
105	0x3dfd42c2	0.12366249
106	0x3e12cf8c	0.14336985
107	0xbe18114b	-0.14850347
108	0xbeeb6225	-0.45973316
109	0xbe9e8b4a	-0.30965644
110	0x3e28aaf0	0.16471457
111	0xbe13f660	-0.14449453
112	0x3c90edae	0.01769146
113	0xbe7e62ea	-0.2484242
114	0xbed53bed	-0.41647282
115	0x3c0d8f99	0.008640193
116	0xbec9e9e3	-0.39436254
117	0xbe0548b4	-0.13016015
118	0xbd4b4a83	-0.049631607
119	0x3dcf77b2	0.10130252
120	0x3d8f5206	0.069980666
121	0xbca781e9	-0.020447688
122	0x3e617a2e	0.22019264
123	0xbe96ddc4	-0.2946607
124	0x3e2130e5	0.15741308
125	0xbead5f08	-0.33861566
126	0x3dd2b838	0.10289043
127	0xbc857392	-0.01629046
128	0xbe5aa824	-0.21353203
129	0x3c726960	0.014795631
130	0xbeb13311	-0.34609273
131	0x3e060f72	0.1309183
132	0x3d8457de	0.06462072
133	0xbebf4b07	-0.3736193
134	0x3e24cd13	0.16093855
135	0x3d45d7c3	0.04830147
136	0xbd16b5ff	-0.03679466
137	0x3de2ee35	0.11080591
138	0xbde52cd1	-0.11190189
139	0xbe609726	-0.21932659
140	0x3e22aadc	0.1588549
141	0x3d993bb9	0.07482094
142	0xbe557552	-0.20845535
143	0x3e0b1f26	0.13586101
144	0xbe29855c	-0.16554779
145	0xbd8bba12	-0.068225995
146	0x3e345e65	0.17614134
147	0xbc636318	-0.013878606
148	0xbcd2692d	-0.025684917
149	0xbe5bff6e	-0.21484157
150	0x3e20a507	0.15687953
151	0xbd7716f1	-0.060324613
152	0xbe9093bd	-0.28237715
153	0x3e35a037	0.17736898
154	0x3d54a518	0.05191526
155	0x3d7605bd	0.060064066
156	0xbe0d50d2	-0.13800362
157	0xbe217307	-0.15766536
158	0xbdd5d13a	-0.104402974
159	0x3c538e70	0.012912378
160	0x3c075d5d	0.008262006
161	0x3dd0360e	0.1016656
162	0x3d8cf0b6	0.068818495
163	0xbe629eda	-0.2213091
164	0x3c21e4c3	0.009881201
165	0x3e8155e0	0.2526083
166	0xbd64d80d	-0.055870105
167	0x3cac705f	0.021049676
168	0x3dcbcdb6	0.099513456
169	0xbd081cd4	-0.033230618
170	0xbd247994	-0.04015501
171	0xbe802469	-0.2502778
172	0xbc8fdd7f	-0.017561672
173	0xbdde18ac	-0.108445495
174	0xbde2e8fb	-0.11079594
175	0x3d09cd32	0.033642955
176	0x3d5d560d	0.054037143
177	0xbea299a7	-0.31757852
178	0x3cfe2543	0.031023627
179	0xbda98d21	-0.08278871
180	0xbdfe5ca0	-0.124200106
181	0xbe5471cd	-0.20746537
182	0x3e901a1e	0.28144926
183	0xbdb6577b	-0.08903404
184	0xbda4d3de	-0.08048223
185	0x3d2b63cf	0.04184323
186	0x3e060881	0.13089181
187	0xbdc5105f	-0.09622263
188	0xbeab9465	-0.33511654
189	0x3d9c9186	0.07644944
190	0xbcd2cc99	-0.025732325
191	0xbd8d3688	-0.06895167
192	0x3dbadfe6	0.091247365
193	0x3c4c94a6	0.012486612
194	0x3baaafba	0.0052089365
195	0xbe29b103	-0.16571431
196	0xbe0c039e	-0.13673255
197	0xbdfbc102	-0.12292673
198	0x3d8c0db8	0.06838554
199	0xbdaed407	-0.08536535
200	0xbe2fd9c4	-0.17172915
201	0x3e627a58	0.22116983
202	0xbe02b28b	-0.12763421
203	0xbe87718a	-0.2645381
204	0xbcd5c8b2	-0.026096676
205	0xbdafc47b	-0.085823976
206	0xbcc51b08	-0.024060741
207	0x3e17ab7b	0.14811508
208	0x3dea4812	0.114395276
209	0xbe3331e5	-0.17499502
210	0xbea96e71	-0.33092073
211	0x3d87f188	0.06637865
212	0x3d13837b	0.03601406
213	0xbe5da759	-0.2164587
214	0xbe720a0f	-0.2363665
215	0x3c2258bb	0.00990885
216	0xbdc57244	-0.09640935
217	0xbd5b7192	-0.053575106
218	0x3d688e88	0.056776553
219	0xbd39f8ed	-0.04540341
220	0xbd8aa3d7	-0.06769531
221	0xbdd28f49	-0.10281236
222	0xbe909254	-0.2823664
223	0x3de6198f	0.11235344
224	0x3e38751a	0.1801342
225	0x3e26deca	0.16295925
226	0xbd9ae234	-0.07562676
227	0xbd6172b2	-0.055041023
228	0x3d57eb70	0.052714765
229	0xbeace03b	-0.33764824
230	0xbe2daf02	-0.16961291
231	0x3dde6411	0.1085893
232	0x3e21f17a	0.15814772
233	0xbc2d84e2	-0.010590764
234	0x3c02a0a4	0.00797287
235	0xbe7a4fdf	-0.24444531
236	0xbe0b3dc7	-0.13597785
237	0x3e413e32	0.18871382
238	0xbe956103	-0.29175577
239	0x3dcedc78	0.10100645
240	0xbd81aacf	-0.06331407
241	0xbe918550	-0.28422022
242	0xbe8a114e	-0.26966327
243	0xbe03a0a5	-0.1285425
244	0xbd8df808	-0.06932074
245	0xbe596a97	-0.21232067
246	0xbe3745d0	-0.17897725
247	0xbd474609	-0.048650775
248	0x3dfe39d6	0.12413375
249	0xbe9b1b74	-0.30294383
250	0xbef24bbc	-0.47323406
251	0xbd3a58af	-0.04549473
252	0x3e40f311	0.18842722
253	0xbbe22de8	-0.006902445
254	0x3d971759	0.073775
255	0x3e1bb3ec	0.15205353

bias f4 [10]
0	0xbe67a5ec	-0.22621888
1	0xbe8f5199	-0.27991942
2	0xbd1b64b0	-0.03793782
3	0xbc2b10b5	-0.010440995
4	0x39e0ceb6	0.0004287862
5	0x3ceae9d3	0.02867595
6	0xbde34ef7	-0.11099046
7	0xbe6c0f86	-0.23052797
8	0x3eab9550	0.33512354
9	0x3dece750	0.11567557
